…
rs.BatchNormalization(), keras.layers.Dense(10, activation=\"softmax\")\n])\nThat\u2019s all! In this tiny example with just two hidden layers, it\u2019s unlikely that Batch\nNormalization will have a very positive impact; but for deeper networks it can make a\ntremendous difference."
  },
  {
    "id": 222,
    "content": "Let\u2019s display the model summary:\n>>> model.summary()\nModel: \"sequential_3\"\n_________________________________________________________________\nLayer (type) Output Shape Param #\n=================================================================\nflatten_3 (Flatten) (None, 784) 0\n_________________________________________________________________\nbatch_normalization_v2 (Batc (None, 784) 3136\n_________________________________________________________________\ndense_50 (Dense) (None, 300) 235500\n_________________________________________________________________\nbatch_normalization_v2_1 (Ba (None, 300) 1200\n_________________________________________________________________\ndense_51 (Dense) (None, 100) 30100\n_________________________________________________________________\nbatch_normalization_v2_2 (Ba (None, 100) 400\n_________________________________________________________________\ndense_52 (Dense) (None, 10) 1010\n=================================================================\nTotal params: 271,346\nTrainable params: 268,978\nNon-trainable params: 2,368\nAs you can see, each BN layer adds four parameters per input: \u03b3, \u03b2, \u03bc, and \u03c3 (for\nexample, the first BN layer adds 3,136 parameters, which is 4 \u00d7 784). The last two\nparameters, \u03bc and \u03c3, are the moving averages; they
…
